best_doa_model.pth (torch, 53780 bytes, 8 tensors)

network.0.weight f4 [128, 16]
0	0xbe999e14	-0.30003417
1	0xbc3046e2	-0.010759087
2	0xc07c18ea	-3.9390206
3	0xbdefe9a9	-0.11714489
4	0xbed60d72	-0.41807133
5	0xbf143090	-0.578866
6	0xbe1df063	-0.15423732
7	0xbf15107a	-0.58228266
8	0xbf648ed5	-0.89280444
9	0xc0343451	-2.8156931
10	0xbf899bdd	-1.0750691
11	0x3d9ab770	0.07554519
12	0x3f5c6b33	0.86101073
13	0x3fbe1790	1.4850941
14	0xbd3fa1d5	-0.046785194
15	0xbe3816f7	-0.1797751
16	0x3d81e5f4	0.06342688
17	0x3baf5196	0.005350302
18	0x3eed7ad5	0.46382776
19	0x3ec848bf	0.39118
20	0xc0091381	-2.1418154
21	0x3ff25bbc	1.8934245
22	0xbec62e0c	-0.38707006
23	0xc03a0b2a	-2.9069314
24	0x3f38e72e	0.7222775
25	0xbf0b32f3	-0.5437462
26	0x3f8ac2bd	1.084068
27	0x3fd27b8e	1.6443956
28	0xbf3fb386	-0.74883306
29	0x3e09fc32	0.13475111
30	0x3f1eea2c	0.6207607
31	0xbefa649c	-0.48904884
32	0x3e95dfe3	0.29272375
33	0x3ff35273	1.9009537
34	0x3f8b3c15	1.087771
35	0x3e8c0f25	0.27355304
36	0xbd9e4822	-0.07728602
37	0xbfac64d4	-1.346827
38	0x3edb3737	0.42815563
39	0xc05f3cee	-3.4880939
40	0x3f25cfa1	0.6476994
41	0x3f2a5684	0.6653826
42	0x3f912dd3	1.134211
43	0x3f88934b	1.066995
44	0xbfc0b32e	-1.5054681
45	0x3f2dae30	0.67843914
46	0xbeb6fa17	-0.35737678
47	0x3f01fac4	0.5077326
48	0xbf4030f5	-0.750747
49	0xbebb8c15	-0.36630312
50	0xbea23bf9	-0.3168638
51	0xbdaf11c8	-0.085483134
52	0xbf9d2293	-1.2276176
53	0x3dfe68d5	0.12422339
54	0xbeb8820f	-0.36036727
55	0xbe148c9d	-0.14506765
56	0x3fac7b2e	1.3475091
57	0x3edf1d39	0.43576983
58	0x3e8ad71c	0.2711724
59	0x3f8eef49	1.1166774
60	0x3e0e04ee	0.13869068
61	0x401d727e	2.460113
62	0x3ff2c3ad	1.8965966
63	0x3ffce1fa	1.9756463
64	0xbff4c953	-1.9123939
65	0xbed846a1	-0.42241386
66	0xbf5fa460	-0.8736019
67	0xc00140b9	-2.0195754
68	0xbe139754	-0.14413196
69	0x3ff49fe6	1.9111297
70	0x3ed56c40	0.4168415
71	0xbbe71c7f	-0.0070529575
72	0x3f434397	0.7627501
73	0x3de30269	0.11084444
74	0x3fc0c22a	1.5059254
75	0x3d06de06	0.03292658
76	0xbf225830	-0.63415813
77	0xbf420b2b	-0.7579829
78	0xbf30f849	-0.69128853
79	0xbee6d022	-0.45080668
80	0xbdd491f1	-0.103793986
81	0x3f5971ac	0.84939075
82	0xbead7a55	-0.33882394
83	0x3fe99f4d	1.825174
84	0xbf4b6e2e	-0.79464996
85	0xbef0debc	-0.47044933
86	0xbdbfc189	-0.09363086
87	0x3fb79f52	1.4345496
88	0x3f5be7c3	0.85900515
89	0x3e443d1e	0.1916394
90	0x3eb32979	0.3499258
91	0x3d0a7615	0.033804018
92	0x3fbc63ad	1.4717919
93	0x3ff1a3e5	1.8878142
94	0x40183016	2.377935
95	0x3fa4d5af	1.2877711
96	0xbec86dc6	-0.3914625
97	0x3e2b3f77	0.16723429
98	0x3fbd1c3e	1.4774244
99	0x3ffab3e0	1.9586143
100	0x3f774d24	0.9660208
101	0xbf41db02	-0.75724804
102	0xbf7444a8	-0.9541726
103	0xbbf00c8e	-0.0073257154
104	0xbfc40b70	-1.531599
105	0x3fa20461	1.2657586
106	0xbe789938	-0.24277198
107	0x3b1c9195	0.0023890485
108	0x3d395c4c	0.045254037
109	0xbf40e173	-0.7534401
110	0xbfa4f528	-1.2887316
111	0xbe15179b	-0.14559786
112	0xbf9f9682	-1.2467806
113	0x3f9431b0	1.1577663
114	0x3fb1900f	1.3872088
115	0xbfbdb7de	-1.4821737
116	0xbfef0987	-1.8674783
117	0x3fb14972	1.3850539
118	0x3f735783	0.9505541
119	0xc0381792	-2.8764386
120	0xbf884a12	-1.0647604
121	0x3ffd244d	1.9776703
122	0x4008f196	2.1397452
123	0xbfa7a400	-1.3096924
124	0xbfbcdde8	-1.475522
125	0x3fe472f5	1.7847582
126	0x3f544578	0.829185
127	0xbfbc9a46	-1.473458
128	0x3e69dd8e	0.22838423
129	0x3ecb59ba	0.39716893
130	0x3f70c991	0.94057566
131	0xbfaa8954	-1.3323159
132	0x3f873fda	1.0566361
133	0x3ea18ebc	0.3155421
134	0xbd5cc434	-0.05389805
135	0xbe6c852e	-0.23097679
136	0xbe719560	-0.23592138
137	0x3fc09dfd	1.5048214
138	0xbdb3884e	-0.087662324
139	0xbee7bc94	-0.4526106
140	0xbe0cce6c	-0.13750619
141	0xbf8059e5	-1.0027434
142	0x3f0bdc3c	0.54632926
143	0x3eb0dc4c	0.34543073
144	0xc00fb455	-2.2453816
145	0xbf90d0b9	-1.1313697
146	0xbdcc696e	-0.099810466
147	0xbfdb3fd6	-1.7128856
148	0x3fe9c1b7	1.8262242
149	0x3f9b6f8c	1.2143416
150	0x3f16d175	0.58913356
151	0x3e4cf505	0.20015343
152	0xbde3922e	-0.11111866
153	0xbf185df5	-0.5951837
154	0x3fa686c4	1.3009877
155	0xbf2dac04	-0.678406
156	0xbfd9e65f	-1.7023429
157	0xbf691cf8	-0.9105983
158	0xbeb78aab	-0.35847983
159	0x3f10a1d2	0.5649692
160	0xbf4d2394	-0.8013241
161	0xbf20549a	-0.6262909
162	0xbf4ec482	-0.807686
163	0xbfe9b15a	-1.8257248
164	0xbf22f8e2	-0.63661015
165	0x3eeb899e	0.4600343
166	0xbfa180f8	-1.2617483
167	0xbf804512	-1.0021079
168	0x3f436360	0.7632351
169	0xbf4aa089	-0.7915121
170	0xbf1c2e78	-0.61008406
171	0x3e8b0b7d	0.27157202
172	0xbecfa693	-0.40556774
173	0xbe03a681	-0.12856485
174	0x4003fee9	2.0624335
175	0x3fd51109	1.6645824
176	0xbeb1a85e	-0.34698766
177	0x3b7e1c29	0.003877411
178	0x3cf4a012	0.029861484
179	0x3f10869f	0.56455415
180	0xbfd94505	-1.6974188
181	0x3e1fcc29	0.15605225
182	0x3e242afe	0.16032025
183	0xc00158ae	-2.0210376
184	0x3f96ba59	1.1775619
185	0x3fe7450c	1.8067946
186	0xbc87bc40	-0.016569257
187	0x3da7cb2f	0.08193051
188	0xbff03f34	-1.8769288
189	0xbf100552	-0.5625812
190	0x3f03f93f	0.51552194
191	0xbf57ae36	-0.842502
192	0xbe8e3cd7	-0.27780792
193	0x3f463df4	0.7743828
194	0x3fdff4a8	1.7496538
195	0xc00075a4	-2.0071802
196	0xbe76d01f	-0.2410283
197	0x401bfff6	2.4374976
198	0x40051344	2.0793009
199	0xbfaf80b8	-1.3711157
200	0xc04405a4	-3.0628443
201	0x3fe372c7	1.7769402
202	0x3f9e5e5e	1.2372549
203	0xbf76b0f8	-0.9636378
204	0xc0258e7e	-2.586822
205	0x3fd23021	1.6420938
206	0x3f3d47a1	0.7393742
207	0xbf799cde	-0.97504985
208	0x3e71dae0	0.2361865
209	0x3d0aa0c0	0.03384471
210	0xbe6b1cb3	-0.22960167
211	0xbe2f9c17	-0.17149387
212	0xbf018b5f	-0.5060329
213	0xbd0d5bf5	-0.034511525
214	0xbfa7d605	-1.3112189
215	0xbf414c09	-0.75506645
216	0x3f71ca7d	0.944496
217	0xbec4c306	-0.3843004
218	0xbed18ac7	-0.4092619
219	0xbf496e58	-0.78683996
220	0x3ff78741	1.9338151
221	0x3fa0c0ed	1.2558876
222	0x3de33994	0.110949665
223	0xbf111696	-0.5667509
224	0x3f87e13c	1.0615611
225	0xbf081bae	-0.53167236
226	0xbe315546	-0.17317685
227	0x3e43a803	0.1910706
228	0xc021e234	-2.5294313
229	0x3ebb2638	0.36552596
230	0x3e434807	0.19070445
231	0xc00c9f3c	-2.197219
232	0x3fa6854a	1.3009427
233	0x3e54a1ff	0.20764922
234	0x3ff74f18	1.9321012
235	0x40046260	2.0685043
236	0x400c805b	2.1953342
237	0x3e93b74c	0.28850782
238	0xbd4338e7	-0.04766169
239	0x3f996bf7	1.1986073
240	0x3f962d96	1.1732662
241	0xbebfb6f8	-0.37444282
242	0xbee6e69f	-0.45097825
243	0x40013c15	2.019292
244	0xbe806405	-0.2507631
245	0x40266bd8	2.6003323
246	0x3e68259d	0.22670598
247	0xbf05a10c	-0.52198863
248	0xbfd38ee4	-1.6527982
249	0x3ea740b5	0.32666555
250	0xbf14c98c	-0.58120036
251	0x3e32576d	0.17416163
252	0xbf15d2e2	-0.58524907
253	0x3f806338	1.0030279
254	0x3e9c9cf9	0.3058851
255	0x3f9683e9	1.1759006

network.0.bias f4 [128]
0	0xc0a9229e	-5.2854757
1	0xc0cdf128	-6.435688
2	0xc0b4e17c	-5.652525
3	0xc055acbb	-3.3386676
4	0xc0987720	-4.7645416
5	0xc0b8bdff	-5.773193
6	0xc097409f	-4.7266383
7	0xc0e072c9	-7.014012
8	0xc0df3fa8	-6.9765205
9	0xc0c88967	-6.2667727
10	0xc09ea5c1	-4.9577336
11	0xc0b6f5e2	-5.717515
12	0xc0acfe61	-5.406052
13	0xc0a25e37	-5.074001
14	0xc05ca913	-3.4478195
15	0xc0bb6783	-5.8563857
16	0xc0c7a851	-6.2392964
17	0xc0c6fd36	-6.2184095
18	0xc0ae2cc5	-5.442965
19	0xc0aeeb1a	-5.466199
20	0xc05702ed	-3.3595536
21	0xc0cedd52	-6.4645166
22	0xc07e76f8	-3.9760113
23	0xc0954999	-4.665234
24	0xc09cf8c7	-4.9053683
25	0xc0b09bbc	-5.5190105
26	0xc0c3885d	-6.110396
27	0xc0b30dde	-5.595443
28	0xc0e24b44	-7.0716877
29	0xc09f0e5e	-4.970504
30	0xc0b85e70	-5.761528
31	0xc084482b	-4.1338096
32	0xc0db15f7	-6.8464313
33	0xc0b44b8e	-5.634223
34	0xc092c074	-4.585993
35	0xc0561f30	-3.3456535
36	0xc0b91205	-5.7834496
37	0xc0c4fcb9	-6.15585
38	0xc098622e	-4.761985
39	0xc0880609	-4.2507367
40	0xc0e5b82d	-7.1787324
41	0xc03181b9	-2.7735426
42	0xc0577fb0	-3.3671684
43	0xc0ae023e	-5.4377737
44	0xc0cf7ff7	-6.4843707
45	0xc0b9bdff	-5.804443
46	0xc0b28a34	-5.5793705
47	0xc0b59a9c	-5.675123
48	0xc0b94fd5	-5.790995
49	0xc0994cf0	-4.790642
50	0xc0984911	-4.7589192
51	0xc060815d	-3.5078957
52	0xc0cf93b5	-6.4867806
53	0xc0b35e9f	-5.6053004
54	0xc0c1637f	-6.0433955
55	0xc0c2794f	-6.077308
56	0xc0519cd6	-3.2751975
57	0xc09fd957	-4.9952807
58	0xc045ec6b	-3.0925548
59	0xc05a7fb6	-3.4140449
60	0xc0950954	-4.6573887
61	0xc0caf946	-6.342929
62	0xc0d6e0c9	-6.7149396
63	0xc04bd38d	-3.184787
64	0xc0a46d86	-5.1383696
65	0xc0dc2cb8	-6.880459
66	0xc0cf8611	-6.4851155
67	0xc0958184	-4.67206
68	0xc0b9cc8b	-5.8062186
69	0xc0884396	-4.25825
70	0xc0b9212c	-5.7852993
71	0xc0a29703	-5.080934
72	0xc0968fc1	-4.705048
73	0xc0a9f1fe	-5.31079
74	0xc0ca7b55	-6.327555
75	0xc0a0a99a	-5.0207033
76	0xc0812dc9	-4.036839
77	0xc0be67ed	-5.9501863
78	0xc0c1c40c	-6.0551815
79	0xc0a8e4d0	-5.277931
80	0xc0818bd3	-4.0483184
81	0xc0bdef32	-5.9354486
82	0xc0c44f65	-6.1346917
83	0xc0c2e38e	-6.0902777
84	0xc0b52208	-5.660404
85	0xc091cb76	-4.5560865
86	0xc0e4f81e	-7.1552877
87	0xc0866045	-4.1992517
88	0xc0bb6bb0	-5.8568954
89	0xc0b34b0d	-5.6029115
90	0xc0c90274	-6.2815495
91	0xc02c522b	-2.6925151
92	0xc0b5f93f	-5.6866755
93	0xc0a1033d	-5.0316453
94	0xc08e164f	-4.440223
95	0xc079daab	-3.9039714
96	0xc0b1f6ab	-5.561361
97	0xc0aeb6ee	-5.4598303
98	0xc0bacee1	-5.837754
99	0xc0947197	-4.638866
100	0xc0a3f6d3	-5.12388
101	0xc0c16378	-6.043392
102	0xc0acd5ad	-5.4010835
103	0xc04efa9f	-3.2340467
104	0xc0969e5a	-4.70683
105	0xc0b0024c	-5.5002804
106	0xc0a89d4a	-5.2692003
107	0xc0979e6b	-4.738088
108	0xc0b58af4	-5.673212
109	0xc0a76f52	-5.232339
110	0xc0bc9bbc	-5.8940105
111	0xc034e8eb	-2.8267162
112	0xc0bcbf85	-5.898379
113	0xc03beb19	-2.9362242
114	0xc0bf53c4	-5.9789753
115	0xc0a28adb	-5.07945
116	0xc0bb3f8e	-5.851508
117	0xc0d8c6ce	-6.774268
118	0xc0a67772	-5.2020807
119	0xc0af183b	-5.471708
120	0xc099d2a0	-4.806961
121	0xc0b7a03d	-5.7383103
122	0xc0ad3ef7	-5.413936
123	0xc0b564a5	-5.6685357
124	0xc0840aef	-4.1263347
125	0xc0806ee3	-4.013536
126	0xc0bc4a3d	-5.8840623
127	0xc0e5709c	-7.1699963

network.3.weight f4 [64, 128]
0	0xbfd6fd85	-1.6796118
1	0xbe85115f	-0.25989816
2	0x3f89462d	1.0724541
3	0xc019c246	-2.4024825
4	0xbf5fb88a	-0.8739096
5	0xbfa703fb	-1.304809
6	0x3e22f3df	0.15913342
7	0xbf82f89b	-1.0232118
8	0xbf877a04	-1.0584111
9	0x3eb2d713	0.34929714
10	0xc035476f	-2.832485
11	0xbfd91f40	-1.6962662
12	0xc0154463	-2.332299
13	0xc03744c7	-2.8635728
14	0xbfec06ff	-1.8439635
15	0xbeb68e22	-0.35655314
16	0xc01777f2	-2.366696
17	0xbf440b24	-0.765795
18	0xbe2e9e72	-0.1705263
19	0xbff6f9b8	-1.9294958
20	0xc01bd6e2	-2.4349904
21	0xbf213b20	-0.6298084
22	0xc014489a	-2.3169312
23	0x3f0bf4e4	0.5467055
24	0xbffdb45a	-1.9820664
25	0xbf367268	-0.7126832
26	0xbf201c12	-0.6254283
27	0xbe41d3a1	-0.18928386
28	0x3dfb833b	0.122808896
29	0xbe369926	-0.17831859
30	0x3eaccec7	0.3375151
31	0xc06bd6c5	-3.6849835
32	0xbffcd110	-1.9751301
33	0xbe9a3f5a	-0.30126458
34	0x3e77cf7a	0.2420024
35	0xc04587e7	-3.0864198
36	0x3f916c7b	1.1361231
37	0x3f801291	1.0005666
38	0xbe387a91	-0.18015505
39	0x3e55e3ec	0.20887727
40	0xbfaf0e62	-1.3676264
41	0xc01d4c34	-2.457776
42	0xbdb28499	-0.08716697
43	0x3f355da7	0.7084603
44	0x3f4e5e5a	0.8061272
45	0xbf23d97c	-0.6400373
46	0xc041fa1c	-3.0308905
47	0xbf17efe8	-0.5935044
48	0x3e75c998	0.24002683
49	0xbee93db3	-0.45554885
50	0xbf25f6d4	-0.64829755
51	0xbed23836	-0.4105851
52	0xbf165e74	-0.58737874
53	0xc01a3763	-2.4096305
54	0x3f031ab5	0.51212627
55	0xbd26a7fe	-0.040687554
56	0xbdd3bc95	-0.103387035
57	0xbe6afc7d	-0.22947879
58	0xbe848d42	-0.2588902
59	0x3e26a373	0.16273288
60	0xbfa5fc8c	-1.2967696
61	0x3eea2a6a	0.45735484
62	0xbfc02bc0	-1.5013351
63	0xbf0c92fb	-0.54911774
64	0x3f0e5b85	0.556084
65	0xbf4591e7	-0.77175754
66	0xbd3cbf6f	-0.046081003
67	0xc007f4db	-2.1243198
68	0xc007c915	-2.121648
69	0xbecfbfba	-0.40575963
70	0xbce5e9ac	-0.028065525
71	0xbe23d900	-0.16000748
72	0x3d7cd602	0.06172753
73	0xbec9f002	-0.39440924
74	0x3f734080	0.95020294
75	0xbffc85a8	-1.9728289
76	0xbfa8305b	-1.3139757
77	0x3d1b5bb3	0.037929248
78	0xbfc9d12f	-1.5766963
79	0xbefe05fa	-0.49613935
80	0xbe403c2a	-0.18772951
81	0xbfdbb897	-1.7165707
82	0xbfb7aa9c	-1.4348941
83	0xbf817bad	-1.0115868
84	0xbf4f5a78	-0.8099742
85	0xbf94f1cb	-1.1636289
86	0xbf42c829	-0.7608667
87	0xc007896a	-2.117762
88	0x3f3bb63f	0.7332496
89	0xbfecbd8a	-1.8495343
90	0xbfc31089	-1.5239421
91	0x3db855c0	0.090007305
92	0x3e43a0ae	0.19104263
93	0x3e8fa8dd	0.2805852
94	0xc01ec399	-2.4806883
95	0xc0383a15	-2.878545
96	0x3ed823c1	0.42214778
97	0xbf5aa73f	-0.8541145
98	0xbea81cf2	-0.32834584
99	0xc02df328	-2.717966
100	0x3ec75734	0.38933718
101	0xbdfcb214	-0.12338653
102	0xbdd72f48	-0.10507065
103	0x3da601a6	0.08105783
104	0x3e024861	0.12722923
105	0xbf537b69	-0.82610184
106	0x3e7cea4b	0.2469875
107	0x3e0bd4f6	0.13655457
108	0xbf8accbb	-1.0843729
109	0xc01b968d	-2.431064
110	0xbf9c1883	-1.219498
111	0xbcd9962e	-0.026560869
112	0xc024138d	-2.5636933
113	0xbeeedccc	-0.4665283
114	0xbfeb4e0f	-1.8383197
115	0x3f03b1d7	0.5144324
116	0xbf21af34	-0.63157964
117	0x3eae083b	0.33990654
118	0x3f146eb6	0.5798143
119	0xc0037432	-2.053967
120	0xc024a772	-2.57272
121	0xbebfa5c6	-0.37431163
122	0xbf198b80	-0.59978485
123	0xbd684b84	-0.056712642
124	0x3e07c842	0.13259986
125	0x3ee0cd68	0.43906713
126	0xbf9d63ba	-1.2296059
127	0xbf88cd8f	-1.0687732
128	0xbe39ac46	-0.18132123
129	0xbf9640ca	-1.1738522
130	0x3ee97060	0.45593548
131	0x3cee2347	0.029069556
132	0xbfcfbecf	-1.6230105
133	0xbf63186a	-0.8870913
134	0xc01d8b26	-2.461618
135	0xc01f8f3f	-2.493118
136	0xbfdb787b	-1.7146143
137	0xbffdd0d4	-1.9829354
138	0x3e72d163	0.23712687
139	0xbf22b150	-0.6355181
140	0xc03a2b59	-2.9088957
141	0xbfd84a20	-1.6897621
142	0x3f0ef43b	0.55841416
143	0x3eb6b8bb	0.35687813
144	0x3f3a49fd	0.7276915
145	0xbfb76af9	-1.432952
146	0xc05323e6	-3.299066
147	0xbe02ff0b	-0.12792604
148	0x3f0b9a8f	0.5453271
149	0xbff35418	-1.9010038
150	0xbd695bb1	-0.05697221
151	0xc04cd160	-3.2002792
152	0xbfdc9516	-1.7232997
153	0x3eaadece	0.3337311
154	0x3e8ad606	0.27116412
155	0xbfb438fa	-1.4079888
156	0xbf8680b1	-1.0508024
157	0x3f277eca	0.6542784
158	0xbeeee03b	-0.4665545
159	0x3ed5fa62	0.4179259
160	0xbeae86da	-0.3408726
161	0xbf7ed5fc	-0.99545264
162	0xbf8c1f94	-1.0947137
163	0x3d97036e	0.07373701
164	0xc03044d8	-2.754202
165	0xbe18a1a7	-0.14905415
166	0xc0698a73	-3.6490753
167	0xbdf2147e	-0.11820315
168	0xc02a75f5	-2.6634495
169	0x3ea01d1a	0.31272203
170	0xbfebccf2	-1.8421919
171	0xc03da96b	-2.9634655
172	0x3be11698	0.0068691485
173	0xbfbaffd0	-1.4609318
174	0xc02f21be	-2.7364345
175	0x3fbfbf08	1.4980173
176	0xc072efe1	-3.795891
177	0xbe166884	-0.14688307
178	0xbeefc295	-0.46828142
179	0xbe38f579	-0.1806239
180	0x3c905055	0.01761643
181	0x3f426e09	0.7594915
182	0x3eb3cab1	0.3511558
183	0xbf178473	-0.59186476
184	0xbfb9c496	-1.4513118
185	0x3f12626a	0.5718142
186	0xbfa40fb9	-1.2817298
187	0xbfb786dd	-1.4338032
188	0xbf026e14	-0.50949216
189	0xbe5fea3c	-0.21866697
190	0xc02bcc2d	-2.684337
191	0xc010eda9	-2.2645056
192	0xc00f908d	-2.2431977
193	0xbf869b48	-1.0516138
194	0x3f2d342b	0.67657727
195	0xc01490f5	-2.3213475
196	0x3f258948	0.646626
197	0xc00d84c0	-2.2112274
198	0xc041affa	-3.0263658
199	0x3d728175	0.05920549
200	0xbf9ee2c0	-1.2412949
201	0xbf87cc27	-1.0609177
202	0xbf5a66e5	-0.85313255
203	0x3ee04113	0.43799648
204	0xbe1568a4	-0.14590698
205	0xc0459512	-3.0872235
206	0xbf4bcfeb	-0.7961413
207	0xbfe9e14b	-1.8271879
208	0xbfed4bed	-1.8538796
209	0x3fc18476	1.5118549
210	0xbf714381	-0.9424363
211	0xbfec2732	-1.8449461
212	0xbf99697c	-1.1985316
213	0xbf9a9de3	-1.2079433
214	0xc02e5a09	-2.7242453
215	0x3e20cd1d	0.15703245
216	0x3da72ce7	0.08162861
217	0x3f774fb3	0.96605986
218	0xbe8b7ba4	-0.27242768
219	0xc013c0f4	-2.308652
220	0xbfb9a745	-1.4504172
221	0xbee61f0d	-0.44945565
222	0xbecad65c	-0.39616668
223	0xbf1a407b	-0.6025464
224	0x3f877110	1.0581379
225	0xbd8e63fb	-0.069526635
226	0xbca1821c	-0.019715361
227	0xbca56452	-0.020189438
228	0xbf02ca20	-0.5108967
229	0xbecea99e	-0.40363783
230	0xc0808e8a	-4.0174
231	0xbfe12b45	-1.759133
232	0x3f25c8cf	0.64759535
233	0xbfe80510	-1.8126545
234	0xbef09903	-0.4699174
235	0x3e827065	0.25476375
236	0xbeb383d9	-0.3506153
237	0xc00249d5	-2.0357563
238	0xbfbabe94	-1.458941
239	0xbf8c1cbc	-1.0946269
240	0x3f0bd724	0.54625154
241	0xbfbcc045	-1.4746176
242	0x3e1f758a	0.15572181
243	0xbf216368	-0.63042307
244	0x3f126870	0.5719061
245	0xbf3105af	-0.691493
246	0xbff65b7d	-1.924667
247	0x3f89db58	1.0770063
248	0xbf3274b7	-0.6970934
249	0xbf771281	-0.9651261
250	0xb9362688	-0.00017371227
251	0x3faefeac	1.367147
252	0xc014f0d4	-2.327199
253	0xbf7bb248	-0.9831891
254	0xbfac4fb2	-1.3461821
255	0x3f8cca9d	1.0999333

network.3.bias f4 [64]
0	0x40b585a0	5.6725616
1	0x4061e116	3.5293632
2	0xc02458d5	-2.5679219
3	0x405b6b80	3.4284363
4	0xbf77d210	-0.96804905
5	0x40a749d4	5.227762
6	0xbec4921f	-0.38392732
7	0x404f86c1	3.2425997
8	0x40878a11	4.235604
9	0xc02c1908	-2.6890278
10	0x3f5ec63d	0.8702124
11	0x40bca5b9	5.89523
12	0x401092b1	2.2589533
13	0xc062a63e	-3.5413966
14	0xc003cfd4	-2.0595598
15	0x40f49f42	7.6444407
16	0x40c10e51	6.0329976
17	0x4017088b	2.3598964
18	0x409c0f2a	4.876851
19	0xbf7cf01d	-0.98803884
20	0xbf0b7422	-0.5447408
21	0x405e2e45	3.471574
22	0xbfe34140	-1.7754288
23	0x404967e9	3.1469672
24	0xc00bb000	-2.1826172
25	0x40149b08	2.3219624
26	0xc00e3eba	-2.2225785
27	0xbf33098d	-0.6993645
28	0x3fab0279	1.336013
29	0xbcb0e802	-0.021595005
30	0xc062b335	-3.542188
31	0xbeb3158c	-0.34977376
32	0x40dc686c	6.887747
33	0x3fa93874	1.3220353
34	0xbeb15e64	-0.34642327
35	0xc073255d	-3.7991555
36	0x3f855274	1.0415788
37	0x3e9f2c2f	0.31088397
38	0x40a4a249	5.14481
39	0xc0064096	-2.097692
40	0x3e5812bc	0.21100897
41	0xbec215d8	-0.3790729
42	0xbd2b04e2	-0.041752703
43	0xbfdb70c3	-1.7143787
44	0xc0276144	-2.6153116
45	0x3ff22316	1.8916957
46	0xbeaa835e	-0.3330335
47	0x407d486d	3.9575455
48	0x3f19a8a7	0.6002297
49	0x405fd159	3.4971526
50	0x3f938718	1.1525602
51	0xc04b0f22	-3.1727986
52	0x40111d93	2.26743
53	0x3f063faa	0.52440894
54	0x401cdb1e	2.4508739
55	0xbf2319b6	-0.63711107
56	0x3f205cb3	0.6264145
57	0x40323ac6	2.7848372
58	0xbfb15b17	-1.3855923
59	0xbf18ffe9	-0.5976549
60	0xbf2db84c	-0.6785934
61	0xbff5f5c4	-1.9215627
62	0xc00b20e9	-2.1738837
63	0xbf8b1685	-1.0866247

network.6.weight f4 [32, 64]
0	0xbe99459a	-0.29935914
1	0xbee9a6d2	-0.45635086
2	0xbea7df4f	-0.32787558
3	0xbececc16	-0.4039008
4	0x3cee3e5a	0.029082466
5	0xbea0ccc6	-0.3140623
6	0xbea9e322	-0.331811
7	0xbf87eba8	-1.0618792
8	0xbeb5657d	-0.35428992
9	0xbefcb68f	-0.4935803
10	0xbe9285c6	-0.28617686
11	0xbf22668b	-0.6343772
12	0xbeb940ba	-0.36182195
13	0xbc591bcb	-0.013251255
14	0xbe164566	-0.14674911
15	0xbdf58480	-0.11988163
16	0xbf718b70	-0.9435339
17	0xbeff1382	-0.4981957
18	0xbee0b15a	-0.43885309
19	0x3d817ad0	0.06322253
20	0xbdc2682e	-0.09492527
21	0xbda65766	-0.08122139
22	0xbe2f0b27	-0.17094098
23	0xbf2f5ab3	-0.6849777
24	0x3ed8b28b	0.42323717
25	0xbf110c4a	-0.56659377
26	0xbe78be93	-0.24291448
27	0xbf15db43	-0.5853769
28	0xbf1400ea	-0.57813895
29	0xbea4f8a4	-0.32220948
30	0xbe84b1de	-0.25916952
31	0xbdf0afa0	-0.11752248
32	0x3d7a93d5	0.06117614
33	0xbeebc766	-0.46050566
34	0xbdec34d8	-0.11533517
35	0x3d1c0376	0.038089238
36	0xbd8c8a49	-0.06862313
37	0xbe9a5ab5	-0.3014733
38	0xbeab7c66	-0.33493346
39	0xbed6057a	-0.41801053
40	0xbeaf637a	-0.34255582
41	0xbe2543db	-0.16139166
42	0xbf0a389d	-0.53992635
43	0xbe5fbd1d	-0.21849485
44	0xbe0dbe9f	-0.13842247
45	0xbdf5a6fd	-0.11994741
46	0xbef3a75c	-0.47588623
47	0xbe5eaad5	-0.21744855
48	0xbeebbf01	-0.46044162
49	0xbe601d90	-0.21886277
50	0xbf171106	-0.5901035
51	0xbe806344	-0.25075734
52	0xbf0165eb	-0.5054614
53	0xbbbc8ed1	-0.0057543297
54	0xbe9dad33	-0.30796203
55	0xbe5daab2	-0.21647146
56	0xbeb3d5db	-0.35124096
57	0xbeb6e14b	-0.3571876
58	0xbea53e2e	-0.32274002
59	0xbe11bbde	-0.14231822
60	0xbe731b7e	-0.23740956
61	0xbe64e4e4	-0.2235294
62	0xbeae25b8	-0.34013152
63	0xbebdbf2c	-0.37059915
64	0xbe08adb9	-0.1334752
65	0xbea7ec30	-0.32797384
66	0xbf0c3f5c	-0.5478418
67	0xbd2bb1c0	-0.041917562
68	0xbdd4d9c6	-0.103930995
69	0xbf1d0c47	-0.6134686
70	0xbe6c5c60	-0.23082113
71	0xbed6264d	-0.41826096
72	0xbea387a3	-0.3193942
73	0xbdfe5328	-0.124182045
74	0xbe76c8ca	-0.24100032
75	0xbf0a0d7d	-0.5392683
76	0xbe909407	-0.28237936
77	0x3d9a9817	0.0754854
78	0xbe09e720	-0.13467073
79	0xbe7ec4f6	-0.24879822
80	0xbde0bdad	-0.10973678
81	0xbe88c1ac	-0.2671026
82	0xbebbe27a	-0.36696225
83	0xbc6958b4	-0.01424234
84	0x3e2b2c79	0.16716184
85	0xbe952399	-0.2912872
86	0xbc821af2	-0.01588199
87	0xbe727572	-0.23677614
88	0x3e115b29	0.14194931
89	0xbe89c60d	-0.26908913
90	0xbe1e600d	-0.15466328
91	0xbd0683a0	-0.03284037
92	0xbee99d3b	-0.4562777
93	0xbe801d31	-0.2502227
94	0xbe6ed825	-0.2332464
95	0xbea1c54a	-0.31595832
96	0xbeef198f	-0.46699187
97	0xbf2b94ee	-0.67024124
98	0xbdf301e6	-0.118655965
99	0xbe06dfbe	-0.13171288
100	0xbe33cb4c	-0.1755802
101	0xbf37df17	-0.71824783
102	0xbe0690d6	-0.13141188
103	0xbdc243b8	-0.094855726
104	0xbf2d7af6	-0.6776575
105	0xbeb88d0f	-0.3604512
106	0xbcac0b19	-0.021001386
107	0xbc55d904	-0.013052229
108	0xbe25c611	-0.16188838
109	0xbdae84ac	-0.08521399
110	0xbde97460	-0.1139915
111	0xbe62d861	-0.22152855
112	0xbec8d540	-0.39225197
113	0xbe3b22bc	-0.18274969
114	0xbf1739e8	-0.5907273
115	0xbe82ef53	-0.25573215
116	0xbdce0449	-0.10059411
117	0xbd1de5a0	-0.038549066
118	0xbe48e37c	-0.19618028
119	0xbdad805a	-0.08471747
120	0xbeabc080	-0.33545303
121	0xbe932310	-0.28737688
122	0xbe62fcac	-0.22166699
123	0xbe3c7da5	-0.18407305
124	0xbd0a6c50	-0.0337947
125	0xbf927f90	-1.1445179
126	0xbe1a6ec9	-0.15081324
127	0xbec5c1aa	-0.38624316
128	0xbe8b80a6	-0.27246588
129	0xbe5d8329	-0.21632065
130	0xbec0ff30	-0.37694693
131	0xbb9da9a7	-0.004811484
132	0xbc28c26a	-0.010300258
133	0xbf1c3c56	-0.61029565
134	0xbd7aa127	-0.061188843
135	0xbd95ff91	-0.07324136
136	0xbf1dee09	-0.6169134
137	0xbd97baa4	-0.07408646
138	0xbf0039ed	-0.5008839
139	0xbf2bb94c	-0.67079616
140	0xbea31d81	-0.31858447
141	0x3cd8d840	0.026470304
142	0xbdee431a	-0.11633892
143	0xbebaf5e9	-0.3651574
144	0xbefa391c	-0.48871696
145	0xbdef4208	-0.11682516
146	0xbe957939	-0.29194048
147	0x3c58e228	0.013237514
148	0xbe03ea5d	-0.12882371
149	0xbf3ca172	-0.73683846
150	0x3db57899	0.08860893
151	0xbf401cde	-0.7504405
152	0x3e07f83d	0.13278289
153	0xbf3632b5	-0.7117112
154	0xbee6d66c	-0.45085466
155	0xbe16d4b3	-0.14729576
156	0xbe859eb9	-0.26097658
157	0xbef487c8	-0.47759843
158	0xbda5ae4e	-0.080898866
159	0xbe251bf8	-0.1612395
160	0xbf62831c	-0.8848131
161	0xbedbea33	-0.42952117
162	0xbbb1e4a9	-0.0054288697
163	0xbe664146	-0.22485837
164	0xbf02b481	-0.5105668
165	0xbf040acd	-0.5157898
166	0xbe30e17e	-0.17273518
167	0xbdd839a9	-0.10557873
168	0xbf0c3f34	-0.5478394
169	0xbf45b227	-0.77224964
170	0xbe90b450	-0.28262568
171	0xbf306f81	-0.6892014
172	0xbeb99e10	-0.36253405
173	0xbebb917c	-0.36634433
174	0xbec8fbc3	-0.3925458
175	0xbe8333b8	-0.25625396
176	0xbf07a605	-0.529877
177	0xbea915cb	-0.3302444
178	0xbeaf05c9	-0.341841
179	0x3b9e2b44	0.004826935
180	0xbe8334e8	-0.25626302
181	0xbca601ea	-0.020264585
182	0xbf5b1a2e	-0.8558682
183	0xbecedddc	-0.4040364
184	0xbf8b858a	-1.0900128
185	0xbe92c328	-0.28664517
186	0xbf05bb7b	-0.522392
187	0x3c64e5d0	0.013970807
188	0xbd8842e9	-0.06653387
189	0xbf336c3c	-0.7008703
190	0xbf3da3b5	-0.7407792
191	0xbed81f44	-0.42211354
192	0xbdaa2d75	-0.083094515
193	0xbe3e9ed4	-0.18615276
194	0xbe91ede9	-0.28501824
195	0xbe89ff0f	-0.26952407
196	0x3def783c	0.11692855
197	0xbd725333	-0.059161376
198	0xbe232e50	-0.15935636
199	0xbe81e4d0	-0.25369883
200	0xbd693e45	-0.05694415
201	0xbdf53f60	-0.119749784
202	0x3b8dac0e	0.004323489
203	0xbe235bcb	-0.15952985
204	0xbda57bcb	-0.08080252
205	0xbe696aad	-0.227946
206	0xbe28bec5	-0.16479023
207	0xbd865b0f	-0.06560337
208	0xbeb0b1cf	-0.34510657
209	0xbd0164b1	-0.031590167
210	0xbe67fd0e	-0.22655126
211	0x3bf85b08	0.007579211
212	0xbd8c147a	-0.06839843
213	0xbd89b48d	-0.067238905
214	0xbe29c1f0	-0.16577888
215	0xbdc3164d	-0.09525738
216	0xbda06f2f	-0.078337066
217	0xbe0dcac8	-0.13846886
218	0xbe9b565d	-0.30339327
219	0xbd0d5ab0	-0.034510314
220	0xbe109717	-0.14120136
221	0xbeaa3b19	-0.33248213
222	0xbe847f2f	-0.25878283
223	0xbc373c7f	-0.011183857
224	0xbdbca1f2	-0.09210576
225	0xbd7f4b45	-0.062327642
226	0x3ba31440	0.004976779
227	0xbe5e1328	-0.21686995
228	0xbe8f9919	-0.28046492
229	0xbed8a879	-0.42316034
230	0xbc8661d9	-0.01640408
231	0xbf1ff652	-0.6248523
232	0xbe3b5015	-0.18292268
233	0xbd81644b	-0.063179575
234	0xbc35af1b	-0.011089112
235	0xbe5ee037	-0.21765219
236	0xbd9f2a9b	-0.07771798
237	0xbe1b35cc	-0.1515724
238	0xbe73e831	-0.23819043
239	0xbe059cf6	-0.13048157
240	0xbce9a7d9	-0.028522419
241	0xbe1a5e5e	-0.1507506
242	0xbe6a818b	-0.22900979
243	0xbe53882a	-0.20657411
244	0xbeaabbc7	-0.33346388
245	0xbe5c2111	-0.21496989
246	0xbe10170e	-0.14071295
247	0xbe2062b0	-0.15662646
248	0xbd51bfa6	-0.05120816
249	0xbe365b06	-0.1780816
250	0xbe925241	-0.2857838
251	0x3c7a3f09	0.015273818
252	0xbde4bfc9	-0.111693926
253	0xbde50ff2	-0.11184682
254	0xbb282289	-0.002565535
255	0xbe5ffeb1	-0.21874501

network.6.bias f4 [32]
0	0xbf8db59f	-1.1071051
1	0xc0005189	-2.0049765
2	0xbfc3a4d3	-1.5284675
3	0xbf9ba873	-1.2160782
4	0xbff61576	-1.9225299
5	0xbfe46611	-1.7843648
6	0x40644718	3.5668392
7	0x40a1f35a	5.060956
8	0xbff4e881	-1.9133455
9	0xbfdef9c4	-1.7419972
10	0xbfbee57d	-1.4913784
11	0xbec99cfb	-0.3937758
12	0xbfcf6959	-1.6204025
13	0xbfe33808	-1.7751474
14	0xbf8f2d93	-1.1185783
15	0xbfdb17c8	-1.7116632
16	0xbfeae0eb	-1.834989
17	0xbf902096	-1.1259944
18	0xbfe04813	-1.7521995
19	0xbfab973e	-1.340553
20	0xbf14f24e	-0.5818223
21	0xbfcf547c	-1.6197658
22	0xbfbd7616	-1.4801662
23	0x4090df8e	4.5272894
24	0xbfcf56e9	-1.6198398
25	0xc009a6b2	-2.1507993
26	0xc03ebbbf	-2.980209
27	0xbfafb8b8	-1.3728247
28	0xbfb5fbb3	-1.4217438
29	0x4084b2a5	4.146807
30	0xbfe18cbf	-1.7621077
31	0xbeef4287	-0.46730444

network.8.weight f4 [2, 32]
0	0xbe2cc337	-0.16871344
1	0xbd09bbbe	-0.03362631
2	0xbe9b1dbb	-0.3029612
3	0x3c07fb65	0.008299683
4	0x3cf143bd	0.029451245
5	0xbd90c0ad	-0.07068
6	0x3cbb84c5	0.022890458
7	0xbcc41b7f	-0.023938892
8	0xbe20c327	-0.15699445
9	0xbdf4deef	-0.11956584
10	0x3e5b9f5e	0.21447513
11	0x3e9d04df	0.3066778
12	0xbeb38874	-0.35065043
13	0xbda4b228	-0.08041793
14	0xbe2299d1	-0.15878989
15	0x3c8bb2ca	0.017053027
16	0xbf1d5437	-0.61456627
17	0x3ec1120b	0.37709078
18	0x3e34a962	0.1764274
19	0x3e869eea	0.26293117
20	0x3da4121d	0.08011267
21	0xbf2590d1	-0.646741
22	0x3d4f02e0	0.05053985
23	0xbdb607b3	-0.08888187
24	0xbea2b8dc	-0.31781662
25	0xbd151bc6	-0.03640344
26	0x3e81b37f	0.25332257
27	0xbce353d0	-0.027749926
28	0x3d86f1eb	0.06589111
29	0x3dee659f	0.116404764
30	0x3cb1cf1a	0.021705199
31	0xbe594460	-0.21217489
32	0xbc850bff	-0.016241072
33	0x3edaa4f0	0.42703962
34	0xbe8cf71f	-0.27532288
35	0x3d1a83fc	0.037723526
36	0x3cdd5fc2	0.0270232
37	0x3dc8ee67	0.09811097
38	0xbd99ce40	-0.07510042
39	0x3daea544	0.08527616
40	0xbac663b1	-0.0015135912
41	0x3e8264f2	0.2546764
42	0x3d088348	0.033328325
43	0xbe80f881	-0.25189593
44	0xbe667e85	-0.22509201
45	0x3ebf1db0	0.37327337
46	0xbe3cc6f5	-0.18435271
47	0xbbcb00ff	-0.006195187
48	0x3da78939	0.0818047
49	0x3e544529	0.20729508
50	0x3cde440e	0.02713206
51	0xbe00e43a	-0.12587062
52	0xbe50ca24	-0.2038961
53	0x3e232be0	0.15934706
54	0x3e7b8247	0.24561416
55	0xbd4d74f8	-0.05016038
56	0x3d069cca	0.03286437
57	0x3e859124	0.26087296
58	0x3e5f7411	0.2182162
59	0xbd8fa20d	-0.070133306
60	0x3e201929	0.15634598
61	0xbb28652b	-0.0025695066
62	0xbe6604bf	-0.22462748
63	0x3d52460b	0.05133633

network.8.bias f4 [2]
0	0x3d1e217a	0.038606144
1	0xbd1abdb2	-0.037778564
